app/src/main/assets/nlu.tflite (tflite, 4104 bytes, 6 tensors)

FullyConnected/MatMul_bias f4 [8]
000000 8a 30 52 bd d6 c4 33 3e 5c f6 44 3e 91 6e bb 3d
       -0.05131582 0.17555556 0.19234604 0.09151948
000010 df ba c3 3d d6 2d c7 3d d2 38 32 3d 62 52 c3 bc
       0.09557127 0.097255394 0.04351122 -0.023842994

FullyConnected/W/transpose f4 [8, 65]
000000 d0 30 f8 3e 08 8a 09 bf b2 91 13 bf e3 e4 8f be
       0.4847474 -0.53726244 -0.5764419 -0.28104314
000010 33 9b 03 3e bd 7b 53 be 24 85 86 3e ae e1 05 3e
       0.12852173 -0.20652671 0.26273453 0.13074371
000020 23 9a 56 3e 08 66 a2 be 77 bf 6d 3f 67 c3 f2 3e
       0.20957236 -0.3171847 0.9287028 0.47414705
000030 d5 80 05 bf 56 c9 ce be 23 a9 ca 3d 43 ce 02 bf
       -0.5214971 -0.40387982 0.098955415 -0.5109598
000040 6d 9c 22 bf 36 6a ec 3e 75 46 1b 3f b6 8f ab 3e
       -0.63519937 0.46174783 0.60654384 0.3350808
000050 9e c0 02 bf fe 2b 97 3e c4 32 28 3f 8a b2 3b 3f
       -0.5107516 0.2952575 0.6570246 0.73319304
000060 70 fb a1 bd 69 08 38 bf 81 ad 03 bf 20 31 94 3e
       -0.07909286 -0.7188783 -0.5143662 0.2894373
000070 79 ed 2c bf b4 ce 1d bf e8 6d d4 3d bd ce 00 bf
       -0.67549855 -0.6164353 0.103725255 -0.5031546
000080 76 2a c2 be 68 2b 4b 3e c2 03 2d 3e 45 52 30 be
       -0.3792302 0.19840777 0.16895965 -0.17218883
000090 39 f4 a2 3e 98 b2 84 3e ea ed 4b be 4e af f6 be
       0.31826952 0.25917506 -0.19914976 -0.48180622
0000a0 48 17 8c 3e 91 f0 6a be fb fd 3f be 50 78 43 3f
       0.27361512 -0.22943331 -0.1874923 0.7635546
0000b0 20 fa 80 be 17 b3 bc 3e b7 de 03 3e 5d 71 9b 3e
       -0.2519083 0.36855385 0.12877928 0.30359927
0000c0 97 bf 7c be d0 e4 a5 bf 5c 7a 57 be 71 fe 8f 3e
       -0.2468246 -1.2960453 -0.2104277 0.2812381
0000d0 98 c4 fa be ff 86 48 3f 9c 38 e2 3e 97 84 8a 3f
       -0.48978114 0.7833099 0.44183815 1.0821713
0000e0 3a 2a 8b 3e a3 f4 be be bc 13 03 3e 56 89 dc 3e
       0.27180654 -0.37296018 0.12800497 0.4307353
0000f0 0d 85 9f 3e ba 3d 2e bd 13 df 06 3e 12 21 3a 3e
       0.31156197 -0.042539336 0.13171034 0.18176678
000100 64 f7 14 3e 8c ad 93 be a0 ce bb 3e 4c 8c a4 3e
       0.14547497 -0.28843343 0.3668108 0.32138288
000110 2b 69 72 be 1f 92 48 bd a4 77 33 be e7 68 8c 3e
       -0.23672931 -0.048967477 -0.17526108 0.27423784
000120 07 11 a9 bd 13 00 41 be c0 d6 fb 3d a7 f8 a1 3e
       -0.08255201 -0.18847685 0.1229682 0.3163502
000130 69 0c 07 bf c3 b0 38 3f 50 55 23 3f 48 85 2b be
       -0.5275331 0.72144717 0.6380205 -0.16750062
000140 70 92 a1 3e cb 5c 60 3f a3 1b 0a bf 49 5b 13 bf
       0.31557035 0.8764159 -0.5394842 -0.57561165
000150 26 6c ad 3e e4 33 57 3f 60 9e 6b be 81 9b a3 3e
       0.33871573 0.84063554 -0.23009634 0.31954578
000160 2f 0a e8 3e 28 34 11 bd 77 09 cc 3e b7 54 3f 3e
       0.4532027 -0.03545013 0.3985097 0.1868466
000170 80 e9 2b be bd c5 fd 3e 58 4c 89 3e 2f 41 d3 bd
       -0.16788292 0.49564925 0.26816058 -0.10315167
000180 67 19 19 3f fb 77 d8 be f6 65 d4 3c 27 99 91 bf
       0.59804386 -0.42279038 0.025927525 -1.1374863
000190 41 54 b8 bd b3 02 8b be 2a dc 38 be f0 bf e7 3e
       -0.09000445 -0.27150497 -0.18052736 0.45263624
0001a0 3a 2c 30 3e 5d b3 44 be ca 10 f4 3e d5 d8 0d be
       0.17204371 -0.19209047 0.4766906 -0.13852246
0001b0 c0 ba 96 3e 47 03 c3 3e e7 9e 67 3e 53 98 57 bd
       0.29439354 0.38088438 0.2261921 -0.052635502
0001c0 f4 a6 93 be fb 2e fa 3e ae 04 02 3f 4b f1 7a be
       -0.28838313 0.48863968 0.5078839 -0.24506108
0001d0 4c 5e 82 be d7 05 2f 3f 69 e9 e5 3e 95 9b 4d 3e
       -0.25462568 0.68368286 0.4490464 0.20078881
0001e0 6f ac 76 bf e6 24 28 be 1f 2a 29 3f ee 14 3e 3e
       -0.9635686 -0.16420326 0.66079897 0.18562672
0001f0 95 a2 98 be ca d6 9c be 04 05 16 be d8 c1 57 bd
       -0.2981154 -0.3063262 -0.14650351 -0.0526751
000200 e8 5f 1e be ce 41 44 be 11 f3 46 be 17 e9 1d bf
       -0.15466273 -0.19165727 -0.1942866 -0.6168379
000210 65 e3 5f bf 68 72 98 be 19 7c 0f 3e 90 86 0b bc
       -0.8745635 -0.29774785 0.14012183 -0.008515969
000220 51 39 9b 3e 2e c3 2d 3e 37 2f 81 3e de 8b ee be
       0.30317166 0.16968986 0.25231335 -0.46591085
000230 0c 5e bb 3e c4 8c 0b 3f 41 c8 01 3f 2e f2 d4 3e
       0.3659519 0.54511666 0.5069619 0.41591018
000240 35 9a b1 3d 40 4f 6c bf a2 d6 8a 3f b4 18 1d 3f
       0.08671991 -0.92308426 1.0846751 0.6136582
000250 0a 6d 40 3f e5 23 c3 3e ee f8 65 3f 49 59 13 be
       0.7516638 0.38113323 0.8983296 -0.14389528
000260 18 32 10 3f a4 7b 04 3f a0 7a 59 3e f3 99 3b bf
       0.56326437 0.5175116 0.21238184 -0.7328178
000270 9c 30 81 bf b9 91 31 be b3 83 a7 bf e8 5b 8d bf
       -1.009296 -0.17340745 -1.3087066 -1.1043673
000280 f5 86 ff 3d d3 d4 07 3f 02 73 69 be 9b d9 a8 3e
       0.12476913 0.5305912 -0.22797778 0.3297852
000290 cb c1 bc be 13 cd 05 be 9e 45 d0 3e 9d 89 13 be
       -0.36866602 -0.13066511 0.40678114 -0.14407964
0002a0 70 b6 ab 3e b0 a4 30 bf 10 6c 03 3e b9 f1 8e 3e
       0.33537626 -0.69001293 0.12834191 0.27918795
0002b0 8e f1 fa bd 03 68 f3 3e e0 ae 29 3d 4a f2 5a 3e
       -0.12253104 0.47540292 0.04142654 0.21381488
0002c0 bf d7 07 3e 0b c4 b3 3e f6 bf a5 3e ad e2 12 bf
       0.13265894 0.35110506 0.32373017 -0.5737713
0002d0 98 bc 87 be fd ff ca be 08 d9 27 3f ee 81 fd 3e
       -0.26511073 -0.3964843 0.6556554 0.4951319
0002e0 6c ae 2f 3e d4 04 8d bf 05 c1 1e be d1 29 2e 3f
       0.1715638 -1.1017098 -0.15503319 0.68032557
0002f0 c8 a7 7d 3e 6b 36 86 be e0 2f c8 3e 25 eb 8e bd
       0.24771035 -0.26213393 0.39099026 -0.06978444
000300 cd 35 2f 3e 30 e8 70 3e c7 a5 47 bf f5 bd 7a be
       0.17110367 0.23526073 -0.7798733 -0.24486525
000310 8a 6a e0 3e ce 10 f1 3e 24 bd d5 be f4 6e 0f bd
       0.43831283 0.47083133 -0.41745865 -0.035017923
000320 3f e9 67 be 70 7a b9 3e 15 37 06 3d 8b 3d f9 bd
       -0.2264757 0.36226225 0.032767374 -0.121699415
000330 8c f3 8b 3e b0 c6 1a 3f ef e2 08 bf 18 25 0c 3f
       0.2733425 0.60459423 -0.53471273 0.547441
000340 2a 63 db 3e 32 b0 06 be 1c b4 d3 3e 8d e0 41 3f
       0.42849094 -0.1315315 0.4134835 0.7573326
000350 94 90 17 bf 84 e2 43 bf a7 e6 bd 3e b4 1a 23 3f
       -0.59204984 -0.7651751 0.37090036 0.6371262
000360 26 d0 52 be fa e6 10 3f 40 63 1d 3f 71 55 7f be
       -0.20587215 0.5660244 0.6147957 -0.24934937
000370 76 52 09 3f 37 92 09 3f 4e 8b 74 be 25 aa 3a 3f
       0.5364145 0.5373873 -0.23881266 0.7291587
000380 e7 44 33 3f 63 a6 17 3d 47 d9 ee 3e 44 16 0d bf
       0.7002701 0.037023913 0.46650144 -0.551121
000390 e6 ac 04 3e f2 ab 8b bf ae 9c 1c be e6 33 b1 be
       0.1295658 -1.0911849 -0.15294144 -0.34609908
0003a0 44 d8 74 be ac b2 cb 3e ac ff b0 3e 34 d2 69 be
       -0.23910624 0.39784753 0.34570062 -0.22834092
0003b0 12 e8 cf 3e 2a 96 32 be 83 24 1c 3f 44 de 29 3e
       0.40606743 -0.17440096 0.6099321 0.16588694
0003c0 59 18 86 3e 3a 2a 45 ba 98 7b eb be f0 54 ce 3e
       0.2619045 -0.0007521246 -0.45992732 0.40299177
0003d0 3c 19 e5 be 5e d0 b7 be bc a2 69 be 0d 6b 25 3f
       -0.44745815 -0.3590116 -0.22815984 0.6461647
0003e0 ab 0c 2a 3f 1c 71 c8 3e 20 31 f7 be 61 2a 4f be
       0.6642558 0.39148796 -0.48279667 -0.2023101
0003f0 11 30 17 3f 0f 1c a4 3d ca 55 44 be fc 96 b6 be
       0.5905772 0.08013164 -0.19173351 -0.35662067

FullyConnected_1/MatMul_bias f4 [8]
000000 f1 27 22 be 55 86 42 bd 7d 02 1e 3e 53 49 e7 bd
       -0.15835549 -0.04749139 0.15430637 -0.11293282
000010 13 b3 12 be 75 f2 f7 bd 91 d0 c9 bc fd 51 e2 3d
       -0.14326124 -0.12106792 -0.024635585 0.11050794

FullyConnected_1/W/transpose f4 [8, 8]
000000 c6 b3 f8 be f0 a7 3d bf d6 50 89 bf 9c 22 26 bf
       -0.48574656 -0.7408438 -1.0727794 -0.6489656
000010 16 26 5f bf cd 80 5a bf b8 e7 00 bf 4f 64 16 bf
       -0.8716749 -0.85352784 -0.50353575 -0.5874681
000020 13 f7 97 be 2f a8 65 bf d0 5a 95 bf 02 98 fe be
       -0.2968069 -0.8970975 -1.1668339 -0.49725348
000030 60 35 6c bf d8 83 66 bf 27 9d 6e be 3d e6 bb be
       -0.92268944 -0.9004493 -0.23302136 -0.36699095
000040 9e 2c 89 3e 55 ab 63 3f 4b 3a 88 3f 0e 0a 4b 3f
       0.26791853 0.88933307 1.064279 0.7931222
000050 6b 8f 5a 3f cd 9f 4f 3f b4 44 33 3f b6 9a dc 3e
       0.8537509 0.8110321 0.7002671 0.43086785
000060 f0 21 6f 3f 47 87 a9 bf cd b5 98 3e 05 83 9d bf
       0.9341116 -1.3244408 0.29826203 -1.2305609
000070 d4 ad c2 3e 63 7b cf 3e 87 33 a4 bf 86 4f 4a 3f
       0.38023245 0.40523824 -1.2828225 0.79027593
000080 04 df aa 3f 64 6e c6 be 3c 2a 47 bf a3 0e 55 3f
       1.3349309 -0.38756096 -0.7779882 0.8322546
000090 a5 59 2a 3e 72 9a 68 3e 3a f6 a7 3f 0a f9 a7 3f
       0.16635759 0.22715166 1.3122017 1.3122876
0000a0 8c 94 97 3f 22 88 a0 bf e4 65 52 3e 72 b2 68 bf
       1.1842208 -1.2541544 0.2054668 -0.90897286
0000b0 f0 d3 18 3f 34 8a 20 3f 7d dd 5e bf bf d7 8d 3f
       0.5969839 0.6271088 -0.87056714 1.1081465
0000c0 91 fc 61 bf 5b 8a 86 be d0 37 34 bf a8 9c 2b bf
       -0.8827601 -0.26277432 -0.70397663 -0.67035913
0000d0 c5 4a 4a bf 96 de 4e bf 87 4b 2b bf cb 1a 70 bf
       -0.7902034 -0.8080839 -0.6691212 -0.9379088
0000e0 de a4 25 3f 74 c6 47 3f ca 69 30 3f 0b 26 7d 3f
       0.6470469 0.7803719 0.6891142 0.98886174
0000f0 c0 ba 35 3f 11 4b 37 3f 80 93 8d 3f 66 0b 30 3f
       0.7098808 0.7159892 1.1060638 0.6876739

FullyConnected_2/MatMul_bias f4 [7]
000000 95 49 78 3e 26 90 90 be a6 6d 2f 3e 11 2c 3b bd
       0.2424682 -0.28234977 0.17131671 -0.045696322
000010 0e a6 12 3e 0a 8b 22 be 9c 47 3a be
       0.14321157 -0.15873352 -0.1819138

FullyConnected_2/W/transpose f4 [7, 8]
000000 9f 3b a2 be 75 1d a1 be 4d d9 73 3e ab 2f 7f 3f
       -0.31686112 -0.31467786 0.23813362 0.9968211
000010 49 2f 97 bc 55 de 59 3f aa 98 9a be fe 3e 0b 3e
       -0.018455165 0.85104877 -0.30194598 0.13598248
000020 fd f6 c8 be cf b8 ce be b5 53 b7 3e 5b 75 2d be
       -0.39250937 -0.40375373 0.3580605 -0.16939299
000030 d2 34 66 3f 69 fa 95 3e 6f 1c 0b bf 09 8a da 3e
       0.8992435 0.2929261 -0.5434026 0.42683437
000040 03 70 85 3e 77 ed d3 3e ef 01 23 be 5b 62 78 bf
       0.2606202 0.4139211 -0.15918706 -0.9702508
000050 86 c8 1f 3f 8f a2 47 bf 4d 9e 22 3e 9f 3e b6 3d
       0.6241535 -0.7798242 0.158807 0.08898663
000060 4e 17 d9 3e f2 6b e4 3e a9 cc e8 be c5 97 5e 3f
       0.42400593 0.44613606 -0.45468643 0.8695033
000070 3f aa 60 be e5 69 7c 3e 9d 97 ad 3e b4 81 e1 be
       -0.21939944 0.2464977 0.33904734 -0.44044268
000080 ea 4b c7 be bb 75 d5 be e8 4c d6 3e 00 c4 26 bf
       -0.38925105 -0.41691384 0.4185555 -0.6514282
000090 6c 01 05 bf 95 74 44 bf dc 68 71 be f2 4a 96 3e
       -0.51955295 -0.7674039 -0.23575157 0.29354054
0000a0 ca ff cf 3e 5c 43 9c 3e d8 5a c2 be 6a cf 14 be
       0.4062484 0.3052014 -0.37959933 -0.14532247
0000b0 60 5d 10 bf 4b 7e c1 be 59 25 fa 3e a3 74 e3 be
       -0.5639248 -0.37791666 0.4885662 -0.44424924
0000c0 44 4d 66 3e e1 ee dc 3e cf 0c b5 be 2e 91 17 3f
       0.22490412 0.43151 -0.35361335 0.592059
0000d0 28 c0 a6 3f 82 9c 37 3f 36 3d 1c be f8 8d aa bd
       1.3027391 0.71723187 -0.15257725 -0.0832786
